…
WARNING:tensorflow:From /data/zxy/anaconda3/envs/py36_gpu/lib/python3.6/site-packages/keras/backend/tensorflow_backend.py:422: The name tf.global_variables is deprecated. Please use tf.compat.v1.global_variables instead.

WARNING From /data/zxy/anaconda3/envs/py36_gpu/lib/python3.6/site-packages/keras/backend/tensorflow_backend.py:422: The name tf.global_variables is deprecated. Please use tf.compat.v1.global_variables instead.

Model: "sequential_1"
_________________________________________________________________
Layer (type)                 Output Shape              Param #   
=================================================================
gaussian_noise_1 (GaussianNo (None, 32, 32, 3)         0         
_________________________________________________________________
conv2d_1 (Conv2D)            (None, 32, 32, 16)        448       
_________________________________________________________________
conv2d_2 (Conv2D)            (None, 32, 32, 16)        2320      
_________________________________________________________________
conv2d_3 (Conv2D)            (None, 32, 32, 16)        2320      
_________________________________________________________________
conv2d_4 (Conv2D)            (None, 32, 32, 16)        2320      
_________________________________________________________________
max_pooling2d_1 (MaxPooling2 (None, 16, 16, 16)        0         
_________________________________________________________________
dropout_1 (Dropout)          (None, 16, 16, 16)        0         
_________________________________________________________________
conv2d_5 (Conv2D)            (None, 16, 16, 36)        5220      
_________________________________________________________________
conv2d_6 (Conv2D)            (None, 16, 16, 36)        11700     
_________________________________________________________________
conv2d_7 (Conv2D)            (None, 16, 16, 36)        11700     
_________________________________________________________________
conv2d_8 (Conv2D)            (None, 16, 16, 36)        11700     
_________________________________________________________________
max_pooling2d_2 (MaxPooling2 (None, 8, 8, 36)          0         
_________________________________________________________________
dropout_2 (Dropout)          (None, 8, 8, 36)          0         
_________________________________________________________________
flatten_1 (Flatten)          (None, 2304)              0         
_________________________________________________________________
dense_1 (Dense)              (None, 128)               295040    
_________________________________________________________________
dense_2 (Dense)              (None, 10)                1290      
=================================================================
Total params: 344,058
Trainable params: 344,058
Non-trainable params: 0
_________________________________________________________________
None
Train on 10000 samples, validate on 2000 samples
Epoch 1/60

  256/10000 [..............................] - ETA: 19s - loss: 2.3033 - accuracy: 0.1211
  512/10000 [>.............................] - ETA: 12s - loss: 2.3043 - accuracy: 0.0918
…
 9984/10000 [============================>.] - ETA: 0s - loss: 0.0561 - accuracy: 0.9800
10000/10000 [==============================] - 42s 4ms/step - loss: 0.0565 - accuracy: 0.9799 - val_loss: 0.7626 - val_accuracy: 0.8338
INFO Saved model!
Train: 1.000, Test: 0.746
Model: "sequential_1"
_________________________________________________________________
Layer (type)                 Output Shape              Param #   
=================================================================
embedding_1 (Embedding)      (None, None, 64)          320000    
_________________________________________________________________
lstm_1 (LSTM)                (None, 64)                33024     
_________________________________________________________________
batch_normalization_1 (Batch (None, 64)                256       
_________________________________________________________________
dense_1 (Dense)              (None, 128)               8320      
_________________________________________________________________
dense_2 (Dense)              (None, 1)                 129       
=================================================================
Total params: 361,729
Trainable params: 361,601
Non-trainable params: 128
_________________________________________________________________
1
INFO Saved model!
Train: 0.989, Test: 0.834
Model: "sequential_1"
_________________________________________________________________
Layer (type)                 Output Shape              Param #   
=================================================================
embedding_1 (Embedding)      (None, None, 64)          320000    
_________________________________________________________________
gaussian_noise_1 (GaussianNo (None, None, 64)          0         
_________________________________________________________________
lstm_1 (LSTM)                (None, 64)                33024     
_________________________________________________________________
batch_normalization_1 (Batch (None, 64)                256       
_________________________________________________________________
dense_1 (Dense)              (None, 128)               8320      
_________________________________________________________________
dense_2 (Dense)              (None, 1)                 129       
=================================================================
Total params: 361,729
Trainable params: 361,601
Non-trainable params: 128
_________________________________________________________________
1
Using TensorFlow backend.
WARNING:tensorflow:From /data/zxy/anaconda3/envs/py36_gpu/lib/python3.6/site-packages/tensorflow_core/python/ops/resource_variable_ops.py:1630: calling BaseResourceVariable.__init__ (from tensorflow.python.ops.resource_variable_ops) with constraint is deprecated and will be removed in a future version.
…
